…
> /scratch/gpfs/sl2998/workspace/HALOs/train/trainers.py(1043)get_batch_metrics()->None
-> import pdb; pdb.set_trace()
--Return--
> /scratch/gpfs/sl2998/workspace/HALOs/train/trainers.py(1043)get_batch_metrics()->None
-> import pdb; pdb.set_trace()
> /scratch/gpfs/sl2998/workspace/HALOs/train/trainers.py(1043)get_batch_metrics()->None
-> import pdb; pdb.set_trace()
(Pdb) (Pdb) (Pdb) > /scratch/gpfs/sl2998/workspace/HALOs/train/trainers.py(1043)get_batch_metrics()->None
-> import pdb; pdb.set_trace()
(Pdb) FullyShardedDataParallel(
  (_fsdp_wrapped_module): LlamaForCausalLM(
    (model): LlamaModel(
      (embed_tokens): Embedding(128256, 4096)
      (layers): ModuleList(
        (0-31): 32 x FullyShardedDataParallel(
          (_fsdp_wrapped_module): LlamaDecoderLayer(
            (self_attn): LlamaFlashAttention2(
              (q_proj): Linear(in_features=4096, out_features=4096, bias=False)
              (k_proj): Linear(in_features=4096, out_features=1024, bias=False)
              (v_proj): Linear(in_features=4096, out_features=1024, bias=False)
              (o_proj): Linear(in_features=4096, out_features=4096, bias=False)
              (rotary_emb): LlamaRotaryEmbedding()
            )
            (mlp): LlamaMLP(
              (gate_proj): Linear(in_features=4096, out_features=14336, bias=False)
              (up_proj): Linear(in_features=4096, out_features=14336, bias=False)
              (down_proj): Linear(in_features=14336, out_features=4096, bias=False)
              (act_fn): SiLU()
            )
            (input_layernorm): LlamaRMSNorm((0,), eps=1e-05)
            (post_attention_layernorm): LlamaRMSNorm((0,), eps=1e-05)
          )
        )
      )
      (norm): LlamaRMSNorm((2048,), eps=1e-05)
      (rotary_emb): LlamaRotaryEmbedding()
    )
    (lm_head): Linear(in_features=4096, out_features=128256, bias=False)
  )
)
(Pdb) FullyShardedDataParallel(
  (_fsdp_wrapped_module): LlamaForCausalLM(
    (model): LlamaModel(
      (embed_tokens): Embedding(128256, 4096)
      (layers): ModuleList(
        (0-31): 32 x FullyShardedDataParallel(
          (_fsdp_wrapped_module): LlamaDecoderLayer(
            (self_attn): LlamaFlashAttention2(
              (q_proj): Linear(in_features=4096, out_features=4096, bias=False)
              (k_proj): Linear(in_features=4096, out_features=1024, bias=False)
              (v_proj): Linear(in_features=4096, out_features=1024, bias=False)
              (o_proj): Linear(in_features=4096, out_features=4096, bias=False)
              (rotary_emb): LlamaRotaryEmbedding()
            )
            (mlp): LlamaMLP(
              (gate_proj): Linear(in_features=4096, out_features=14336, bias=False)
              (up_proj): Linear(in_features=4096, out_features=14336, bias=False)
              (down_proj): Linear(in_features=14336, out_features=4096, bias=False)
              (act_fn): SiLU()
            )
            (input_layernorm): LlamaRMSNorm((4096,), eps=1e-05)
            (post_attention_layernorm): LlamaRMSNorm((4096,), eps=1e-05)
          )
        )
      )
      (norm): LlamaRMSNorm((0,), eps=1e-05)
      (rotary_emb): LlamaRotaryEmbedding()
    )
    (lm_head): Linear(in_features=4096, out_features=128256, bias=False)
  )
)
(Pdb) 